Assets/ML-Agents/Goalkeeper/Learning/results/goalkeeper/GoalKeeping.onnx (onnx, 84187 bytes, 9 tensors)

network_body.observation_encoder.processors.0.normalizer.running_mean f4 [19]
00000000: 698c 17c2 1408 373f fcec 91be d89a 75bc
00000010: 789e 8f3e f363 21bd ba26 893e 5e7d ec40
00000020: 737c 323e 9be6 38be 8196 6cbe 6df0 113d
00000030: b6b1 85bd 1ae4 c9c1 fa99 8740 0181 80bf
00000040: 0e60 10c1 c4e6 f73e da1b b9be
-37.88712 0.714967 -0.28501117 -0.014990531 0.2805059 -0.03940196 0.2678736 7.3903036
0.17430286 -0.18056719 -0.23104288 0.03562968 -0.06528036 -25.236378 4.237546 -1.0039369
-9.023451 0.48418248 -0.36154062

network_body.linear_encoder.seq_layers.0.weight f4 [128, 19]
00000000: 3963 333f fdb4 123e 1760 333f cbe9 363e
00000010: 010d a73d eb4f 3a3e 244a 253c a5ed 833e
00000020: f4e8 10bf 4447 d13d dc53 643d ae32 3d3e
00000030: 7012 f63d d951 aabe f02f b23e 5386 773e
00000040: c3ae 733e 0b88 c63e de29 b03d 25c8 dabd
00000050: 4f7f a33e c199 193e c749 953b 7ced 6e3e
00000060: 5ea7 64be 1675 233e 002b bfbd c9ed 2ebf
00000070: 123f 54bc e897 263e 87be 2cbe 8207 913e
00000080: 09d5 c43e 3d89 f03e 80b9 58be 71d0 76bd
00000090: 586e 003f 13bf 01bf d851 bd3d aab5 d23e
000000a0: 4362 8d3e e546 c9bd d9f8 763e acb4 69bd
000000b0: cd38 7abe 0b56 833e 76c1 22bd 9b1d acbd
000000c0: 72c4 433e 70b2 763d 6cd1 1b3e c52f 813e
000000d0: d1bc b1bd da7a 363f 9cee 26bd 49c4 343f
000000e0: 7454 a1bd 28af dabd 9ab2 943d df2f ea3d
000000f0: fd7c eebe 94cb f03e 423d bfbd cea0 03be
00000100: 2c8f 2cbe 3a3a e83d 7aef b63e c499 8b3d
00000110: b607 8ebd c75a 303f 2d1a 743e 4988 bb3e
00000120: 06d8 463f ad71 2f3f 3187 363c 5368 883e
00000130: 2ca3 a9be b3cf c23e 8d33 813e 928a 1a3d
00000140: 8dd9 103e eb34 97bc 3983 963e 63bd ce3c
00000150: b665 47be 6099 84be a80f 033d d1ed 33be
00000160: 6183 6abe c4cf 0cbd 4430 f33e 66d2 653e
00000170: 7301 09bd d2e2 213e e4e2 35bd fe32 fe3e
00000180: 2335 ce3e 59f7 7e3d 5423 edbb a978 753e
00000190: 5044 57be a5e9 30bf b11d 643e 98d6 84bc
000001a0: 3442 79be 3a50 85be 8404 cb3e 669c 5abe
000001b0: 88f3 f0be cf76 ac3e dc11 88bd 2753 183e
000001c0: f72a 853c 1bb6 463c f61b 963e cda9 fcbc
000001d0: da61 3b3e af4c b9be 8edb 49bd 20a7 843e
000001e0: 2dca dcbd 3efc 8bbe 82c4 ba3e 29b0 a83d
000001f0: 3a41 c1be 73da 6abe 6b80 683e 84a0 453e
00000200: ef9d 063f 6614 4fbe 9607 bb3c 6597 6a3e
00000210: 289e a9be e403 51be b5ce 2ebd 683e 7b3d
00000220: 2660 b2be c40f 283e 7285 49bc 9831 0cbd
00000230: 940a 9cbd 1271 29be 24ff b43d c623 efbd
00000240: 5bcb 36be 7f0f e83e f461 76bc a643 fabc
00000250: 9e72 b03d 13df 503e e969 68be e85c 283e
00000260: 550f 7ebd 3f6d be3c 6d26 23bf 12ee 51be
00000270: ea67 a8be 29d0 0cbd 6f2f 3cbe 4244 0cbe
00000280: afa0 863d ba76 45be 9f58 203f cc07 b73e
00000290: 99ac 783e 15e5 a53d 82c9 97be 682e 653c
000002a0: d760 21bd 43ff 453e 0f1b c6bd 1541 aabe
000002b0: 4872 5d3e 859a c6be 31bf 98bd c58d 80be
000002c0: cb90 7d3e f1d7 b2bd f19e b83e 92f3 84be
000002d0: 1f98 13bf 81a8 f6bd 4d35 903d bed8 8d3d
000002e0: f282 4c3d b1f2 4bbe 0ec2 cf3e 1852 d2be
000002f0: bf8b f63d a9c2 053e 1fb6 523d 0826 80bd
00000300: 298e 903e 0339 2abe 09d7 6bbe eeb8 ae3d
00000310: fc58 123e 4708 91be 0c07 573e e534 b9be
00000320: f793 833e 8a08 6ebd dfb7 643d 54b8 15be
00000330: 112f 743e ad82 313e bdcf 1cbe 7e2b 0bbe
00000340: 7064 9dbe be54 6a3e 8898 d2bd 0d7d ae3e
00000350: b86e 393e 6483 9b3e 4e77 993d 9027 073e
00000360: c675 263e 399e d7be 2530 b53d 0159 283e
00000370: 7cc6 15be 6a6e 253e 7fb3 c8be 7870 f5be
00000380: 0925 80bd 1971 0b3e 3a26 32be 14d1 71be
00000390: 7084 893e 15f2 853e 1f40 883e 30e9 aebe
000003a0: d9de c4be 51b6 a1be f49b abbd 0d31 cd3e
000003b0: 3f76 a53c d3ff bcbd 151e 2abd caef a53d
000003c0: 8188 003f 5a7f b3be 7a46 6c3e 15cb bfbd
000003d0: 31c2 af3c 5fba 40bc 4fd1 343e d251 6c3d
000003e0: f61e 3bbe ec1d 09bd b57c 303d fdbf 923d
000003f0: fcd7 993e 7a1f 7d3e ba85 98bc eed6 693e
0.70073277 0.14326854 0.70068496 0.17862622 0.08156777 0.18194549 0.010088477 0.25767246
-0.5660546 0.10218671 0.055744037 0.18476364 0.120152354 -0.3326557 0.34802198 0.24172334
0.23797135 0.38775668 0.086017355 -0.10682706 0.31933066 0.15000059 0.004555914 0.2333278
-0.2232947 0.15962633 -0.093343735 -0.6833158 -0.01295449 0.16268885 -0.16869555 0.2832604
0.38443783 0.46979704 -0.21164513 -0.06025738 0.5016837 -0.5068218 0.09244126 0.41154224
0.2761403 -0.09827975 0.24118365 -0.057057068 -0.2443573 0.25651583 -0.03973528 -0.08404084
0.19117907 0.060228765 0.15216607 0.25231758 -0.08678592 0.71281207 -0.0407549 0.7061201
-0.07877436 -0.1067794 0.07260628 0.11434912 -0.46579733 0.47030318 -0.09337856 -0.12854311
-0.1685149 0.11339231 0.3572958 0.06816438 -0.069350645 0.68888515 0.2383811 0.36627415
0.77673376 0.6853283 0.011140631 0.26642093 -0.33132303 0.38049087 0.25234643 0.037729807
0.14145489 -0.01845785 0.2939699 0.025236791 -0.19472393 -0.25898266 0.031997353 -0.17571189
-0.2290168 -0.03437783 0.4749776 0.22443542 -0.033448648 0.15809181 -0.044405833 0.4964828
0.40274915 0.062247608 -0.0072368775 0.2397181 -0.21022153 -0.69106513 0.22276951 -0.016215608
-0.2434166 -0.2603777 0.39651883 -0.21348724 -0.470608 0.33684394 -0.066440314 0.1487547
0.016255839 0.012128378 0.29318208 -0.030842686 0.18299046 -0.36191317 -0.04928165 0.25908756
-0.107807495 -0.27340883 0.3647805 0.08236725 -0.37745076 -0.22934894 0.22705238 0.19299513
0.5258474 -0.20222625 0.022830766 0.22909315 -0.33128476 -0.2041164 -0.0426776 0.061338812
-0.3483898 0.16412264 -0.012299882 -0.034226984 -0.07619205 -0.16547039 0.08837727 -0.11676745
-0.17851011 0.45324323 -0.015038002 -0.030549835 0.086156115 0.20397596 -0.22696652 0.16441691
-0.06202634 0.023245452 -0.6373051 -0.20500973 -0.3289178 -0.034378204 -0.1837747 -0.13697913
0.06573617 -0.19283572 0.62635225 0.35748136 0.24284591 0.081003346 -0.29645926 0.013988115
-0.039398994 0.19335656 -0.0967313 -0.3325278 0.21625626 -0.38789764 -0.07458342 -0.25108162
0.24762265 -0.08732594 0.36058763 -0.2596708 -0.57653993 -0.12043858 0.07041416 0.06926106
0.049929567 -0.19916798 0.4057774 -0.41078258 0.12038373 0.13062538 0.051443215 -0.06257254
0.2823346 -0.1662331 -0.23031248 0.08531366 0.14291757 -0.28326628 0.20998782 -0.36173168
0.25698826 -0.058113612 0.055839416 -0.14621097 0.2384608 0.17335005 -0.15313621 -0.1359081
-0.3074069 0.22883889 -0.10282999 0.3407978 0.18108642 0.3037368 0.07493459 0.13198686
0.16255865 -0.42112902 0.088470735 0.16440202 -0.14626497 0.16155401 -0.39199445 -0.4793737
-0.06257064 0.13617362 -0.17397395 -0.23614913 0.26858854 0.26161256 0.2661142 -0.34162283
-0.3845127 -0.3158441 -0.08379355 0.40076485 0.020197986 -0.09228482 -0.041532595 0.08102377
0.5020829 -0.350581 0.2307376 -0.09364907 0.021454902 -0.011763184 0.1765797 0.057695217
-0.1827353 -0.0334758 0.04308768 0.07165525 0.30047596 0.24719039 -0.018618453 0.22835895

network_body.linear_encoder.seq_layers.0.bias f4 [128]
00000000: 6f58 843e 56f2 263c 440b d83d 81af 7f3d
00000010: 9133 41be 2b52 e8bc 587d 343c 144e 983b
00000020: 4160 8b3d 6ae7 acbc add7 14be 378a b4bd
00000030: 5272 bcbc a5ad 65bc 8954 b03d b9a6 63bb
00000040: bc23 fabc 2477 b1bd fb59 553d 1600 16bd
00000050: e393 61b9 a3fa 5b3d c80d 6bbd cb56 8ebd
00000060: 56bc c93c 47ff a03d 063a 1a3e a21f 88bc
00000070: a1aa 973d 3cc8 e8bd 1491 01be a9e6 2abd
00000080: fdb8 4ebd e736 ad3b e946 83bc 1005 0a3e
00000090: 4ba8 893b 2d4c 063e 4056 5ebc 570d 22bc
000000a0: 342a 15bd 256c b33c afa9 7f3d ed0b c23c
000000b0: 0bf1 a23d 6c59 f13b dba0 1dbd ecbc 173c
000000c0: a3dd 13bd 386a 7c3d 4558 b83d 1c0e 253e
000000d0: f9e1 cebd d87f 64bc c1be 063e e685 98bd
000000e0: c36c a0bd dfd8 6ebd 0412 b63d 3714 9cbb
000000f0: 8d34 7ebd 200f b7bd ccb9 803d 5f97 babc
00000100: 894c 37ba 0655 95bc ca77 a63d 814c 4abd
00000110: ad7e 37bd 6ded 12bd 5c1e ecbd 8e72 bf3d
00000120: 5d70 3a3d 3ac7 84bd 57c9 243d c2fd c9bd
00000130: 54ce a2bc e870 debd 5c3a 8ebd 99e4 06bd
00000140: f82c 60bd d259 a13c 48b4 133d aead a03d
00000150: 693a f4bd bedd 543c 4faf e8bc baab c2bc
00000160: bbe3 ebbc 1eb4 debc 0012 b7bd 9139 1fbd
00000170: 41d4 0cbd 4755 09bd 9a83 46be ae95 dc3c
00000180: 4565 d6bd d80c 85bd eeea 3fbc ac41 f1bd
00000190: c914 cdbc c5b4 52bd 32e5 76bc a8a2 003c
000001a0: 73da d53d f6e7 8fbd 275a 8fbd ad3e b13d
000001b0: 43e4 f6bc 4d37 9abd 7ce4 c9bc ea0f 5bbd
000001c0: 98d3 633d 99b0 5ebd b1ef ebbd f69e 93bc
000001d0: 3fef 053c 5a3a f13b 74e5 3d3c 9776 98bd
000001e0: 1246 67bd 947b cb3c d75c 5fbc 2c19 47bd
000001f0: 2598 88bd d924 cc3c a98e 18bd ef15 19be
0.2584872 0.010189613 0.10549024 0.062423233 -0.18867327 -0.028359493 0.011016212 0.0046479795
0.06805468 -0.02110644 -0.14535399 -0.08815425 -0.02300373 -0.014018451 0.08609874 -0.0034736826
-0.030534618 -0.086653024 0.052087765 -0.036621176 -0.00021512764 0.053705823 -0.05738619 -0.06950148
0.024625938 0.0786119 0.15061197 -0.016616646 0.07405592 -0.11366317 -0.12652999 -0.04172388
-0.050469387 0.005286086 -0.016025024 0.13478494 0.0042009703 0.13114996 -0.013570368 -0.009890876
-0.0364172 0.021902153 0.062417682 0.023687327 0.079561315 0.0073653962 -0.03848348 0.009261351
-0.03610004 0.061624736 0.09001211 0.16118664 -0.101016946 -0.013946496 0.13158704 -0.07447414
-0.07833245 -0.058312293 0.08890155 -0.004763152 -0.062061835 -0.08938432 0.06285438 -0.022777257
-0.00069923006 -0.018229019 0.08128317 -0.049389366 -0.04479854 -0.035870958 -0.11529228 0.093480214
0.045517314 -0.06483312 0.040231075 -0.098628536 -0.019873776 -0.10861379 -0.06944725 -0.03293285
-0.054730386 0.01969615 0.0360606 0.07845627 -0.11925203 0.012992321 -0.028403906 -0.023763526
-0.028795114 -0.027185496 -0.0893898 -0.03887326 -0.03438211 -0.033528592 -0.1938614 0.026926842
-0.104685344 -0.064965904 -0.011713726 -0.11780104 -0.025034325 -0.051441927 -0.015069293 0.00785128
0.104420565 -0.07026665 -0.06999617 0.086545326 -0.03013814 -0.07530079 -0.024645083 -0.053481974
0.055621713 -0.054367635 -0.11520327 -0.018020134 0.0081747165 0.0073616924 0.01159035 -0.07444494
-0.05646331 0.0248392 -0.013632975 -0.04860799 -0.06669644 0.024919914 -0.037245426 -0.14949773

network_body.linear_encoder.seq_layers.2.weight f4 [128, 128]
00000000: 6e96 14be 34db 2abc 23aa cbbd 24e9 01bd
00000010: 1e21 423d 8382 80bd 3021 923d 7aa6 30bd
00000020: eba9 8c3d cf96 30be 1388 ebbd 4c20 a43d
00000030: 6a97 8c3b f92d 153b deab 08be 6105 f7bd
00000040: 1d17 7d3d 4b5b 253e 9c23 943d 646b 93bd
00000050: bf7e 22be b7f8 013e 036d 4fbe 3674 01be
00000060: a5b4 a73d 744b 923c 5cbf 613c 66bb 623e
00000070: d6c5 b7bc fa22 de3c beb6 f1bd 34f1 94bd
00000080: 8d8f 1e3d 0c37 1bbd 6e44 783d 37b2 ffbd
00000090: 729f a3ba 343e 773d 9e12 ebbc 89c7 1f3e
000000a0: 4393 973d 3a9d 6abe 4b9e e9bc d89a 52bc
000000b0: 2b39 0c3d 4b96 6ebe eafe b6bd 831c 28bb
000000c0: f33d 44ba bc42 33be 087f 69be 3ed2 0bbd
000000d0: dea9 7dbd fae9 11be 1083 1f3d d274 813d
000000e0: ea7b 64bd 079a fd3d 81f3 d33d 8365 f23c
000000f0: b824 2d3e c78c 2abe 4145 50bc 7aea c43d
00000100: 0fbb 66bb 7c23 5d3e 1818 c13d 17a7 14be
00000110: 3c9e 913d 4cb0 37bd 353e fd3c e105 463b
00000120: 9772 483c b20d af3d b6be 6b3e 1746 d13c
00000130: 4266 913c e465 8cbe f32f 833d d81c d33c
00000140: 4d18 0dbd ed90 0f3e 2e9a e63d 08b9 26bd
00000150: 58ef 893d 9576 793e a09d 0bbe 3476 5b3d
00000160: 25ae 3a3e bbe3 e33d 5712 a13c cde2 70bd
00000170: b2cc a63c 0679 75bd cc51 e7bd 8d9a edbd
00000180: 8fab 5dbe b810 14be c5ca be3d 2437 3f3c
00000190: 1819 08be 1d99 c4bd 8b74 07be 7de1 33bd
000001a0: e1c3 0e3d 831f 87bd 0ab4 b2bd 110b e93d
000001b0: 2e5f a63c 016a ebbc d69b 093d 7476 d1bd
000001c0: 200b f13d e52b 97bb e594 043e 575d c53c
000001d0: 6679 23be 597d 5ebe 2a90 7bbe 1c89 c03d
000001e0: e397 05be 5128 eb3d abbd 063c 098f 0cbd
000001f0: 82bb b2bc 9a0c d1bc f5ac 193d 9b5f 933c
00000200: 4260 08bc 65ce 2dbe 799e 803c 365a 28be
00000210: 07da 31bd 7b0c 303b 4771 9dbd b822 58be
00000220: 380f 8bbd e442 73bd 8a0e 3abe 95bc 98bd
00000230: 3b44 55be 7499 0e3e 8aae 88be 257a b1bd
00000240: 3722 773d 7589 cc3d ed1e 823d 004f 7c3d
00000250: 46e0 21be 4df9 96be 87ab 24be a0b6 36be
00000260: dc5c 0abd c905 14be 77cc c2bd 19fe 4bbe
00000270: 18d3 283d 9297 21be 53b2 6e3c 119f 08be
00000280: ec4d 8fbd bf9f 28be 1b45 1fbe 5954 4cbd
00000290: dc96 9a3a 0e41 cdbd 7500 07be 731b 16be
000002a0: 6329 7abe 8daf 693c 039f be3d daef 9abd
000002b0: fc5e 893d cd15 0d3e 82a1 bbbc c7ad 2ebe
000002c0: 6327 503e 7282 b03d 8479 9f3c 8476 f4bd
000002d0: 5d42 163e af8f 823c fcd5 d2bd 3a68 1cbd
000002e0: 7e10 67bc ad04 86bd a07c 5bbd ff54 0ebd
000002f0: 947a 1a3c c528 febd 6216 2abe 1083 cd3d
00000300: 196c 65bc c8bc 89bd 3184 8b3d d552 98bd
00000310: 5453 6c3e f66f 6e3b 3a54 8cbb a80d fbbd
00000320: 40a9 2cbd b9e3 7b3e d599 17be 6dae 29be
00000330: 13da 92bd 128a 2dbd 0bcd 3a3c 8f47 f2bd
00000340: 7799 a73d 71a6 a7be a396 2b3e ab4f b0bd
00000350: f000 1bbe 6e6f 78be 3b33 99bd 0b87 38bd
00000360: 0dc5 293e 3473 4d3c 6db9 5fbd 6d6a 34bd
00000370: e649 cfbd 8103 c0bc a7bf 853d 2a09 5ebe
00000380: 1086 5e3d 5956 e53d e59e 283e 3c7b 7d3e
00000390: eb52 9c3d 0f13 97bd 3946 36bc c422 4abe
000003a0: 995f 153c 32b2 723d 5a38 be3d 5734 84be
000003b0: bc43 ef3d 3bf0 d3bd 41ad 40bc 85f5 3ebd
000003c0: 9816 37be 9665 d3bd f1df 2b3d ba68 2fbe
000003d0: 4b9a 04bd 97b1 25bc 217f 753d 6af6 6c3e
000003e0: b62c b4bd 5da0 4fbe 9426 19be 8a9b 82bd
000003f0: f6aa 7fbd 5a9f cc3d 350f 0abe d7da 9fbd
-0.1451051 -0.010428239 -0.099445604 -0.03171648 0.047394864 -0.06274893 0.07135236 -0.043127514
0.06868347 -0.17245029 -0.115005635 0.08013973 0.004290511 0.0022762998 -0.13346812 -0.12061573
0.06178962 0.16148107 0.072333544 -0.071982175 -0.15868662 0.12692533 -0.20256428 -0.12641987
0.08188752 0.017858244 0.013778534 0.221418 -0.022433203 0.027116287 -0.118024334 -0.07272568
0.03871112 -0.037894294 0.060612135 -0.12485164 -0.0012483431 0.060362056 -0.0286954 0.1560346
0.07401135 -0.2291154 -0.028517863 -0.0128543 0.034234207 -0.2329952 -0.0893534 -0.002565176
-0.0007486038 -0.17505926 -0.22802365 -0.03413605 -0.061929576 -0.14249411 0.03894335 0.0632111
-0.055782236 0.12382894 0.10349179 0.02958942 0.16908538 -0.16655265 -0.012711824 0.09615035
-0.003520671 0.21595567 0.09428424 -0.14516865 0.07110259 -0.044845864 0.030913452 0.0030215906
0.012234352 0.08547534 0.23021969 0.025546117 0.017748956 -0.27421486 0.0640563 0.02577059
-0.034447003 0.14020129 0.11259876 -0.040703803 0.06735104 0.24361642 -0.13634348 0.053579524
0.18230493 0.111274205 0.019662065 -0.058810044 0.020361278 -0.05992987 -0.112948984 -0.11601744
-0.21647476 -0.14459503 0.09316019 0.011670861 -0.13290823 -0.095995165 -0.13228051 -0.043916214
0.034854773 -0.06597807 -0.08725746 0.11379064 0.020309057 -0.02873707 0.033595882 -0.10227671
0.117697 -0.004613387 0.12947424 0.02409236 -0.15964279 -0.21727504 -0.24566713 0.094011515
-0.13046221 0.11482299 0.008223931 -0.034316096 -0.021817926 -0.025518704 0.03751846 0.017989924
-0.008323731 -0.16973265 0.015700566 -0.16440663 -0.043420818 0.0026862908 -0.076876216 -0.21106994
-0.06790012 -0.059389964 -0.18169609 -0.07457844 -0.20826809 0.13925725 -0.26695663 -0.08665875
0.060335364 0.09987155 0.06353555 0.061598778 -0.1580821 -0.29487076 -0.16081057 -0.17843103
-0.033779964 -0.14455332 -0.09511655 -0.1992115 0.04121694 -0.15780476 0.014568883 -0.13341929
-0.06997284 -0.16467188 -0.15553705 -0.049885128 0.0011794227 -0.10022174 -0.13183768 -0.14658909
-0.2442985 0.014263046 0.09307673 -0.07565279 0.0670757 0.13777848 -0.022904161 -0.17058478
0.20327525 0.086186305 0.019467123 -0.119366676 0.14673753 0.015937654 -0.102947205 -0.038185336
-0.014103053 -0.065438606 -0.05358565 -0.034749027 0.009428639 -0.1241012 -0.16610101 0.10034764
-0.014002823 -0.0672546 0.06812323 -0.07437674 0.23078662 0.0036382652 -0.0042825015 -0.12258464
-0.042153597 0.24598588 -0.14804776 -0.16570444 -0.071705006 -0.042368002 0.011401425 -0.11830055
0.08183568 -0.32744172 0.16756682 -0.086089455 -0.15137076 -0.24261257 -0.074804746 -0.045050662
0.16579075 0.012539674 -0.054620195 -0.044046808 -0.10121517 -0.02343917 0.065306954 -0.21683183
0.05432707 0.1119811 0.16466863 0.24754041 0.07633003 -0.07376682 -0.011125141 -0.19739825
0.009117031 0.05925197 0.09288092 -0.25821182 0.11682841 -0.10348555 -0.011760057 -0.046620864
-0.17879713 -0.1032211 0.041961614 -0.17129794 -0.032373708 -0.0101131415 0.059935693 0.23140875
-0.087975904 -0.20276017 -0.14956123 -0.06377323 -0.0624189 0.099913314 -0.13482364 -0.07805412

network_body.linear_encoder.seq_layers.2.bias f4 [128]
00000000: 2244 39bd b179 e6bc db28 aabd 5ad6 98bd
00000010: 513a 7cbd a4ae d6bd 289c e8bd 3d0c 0dbd
00000020: 8cac 8abd b10d 67bd d674 96bd c906 48bd
00000030: 4c85 c6bd 52e4 eebd f028 34bd 00ee dfbd
00000040: 9f96 35bd 73f6 59bd 33a5 12bd 50ef 76bd
00000050: 01ff aabd 958c cfbc 16a2 a7bd c30f eebd
00000060: 233a 7cbd b790 42be 03a9 01be 0987 fcbd
00000070: 9b17 85bd ab6a 14bd f632 18bd 61cb bdbd
00000080: 5aa1 c2bd 0276 08bd d7c4 79bc 819c 33bc
00000090: c9ee 66bd 9e07 9abc 2b23 efbd f131 80bd
000000a0: a1fe 57bd bc93 33bc 873c 143c 71b5 43bd
000000b0: cdc4 debd f19a ddbd 0dbb e0bc 3570 cebd
000000c0: d37f 0fbc 3277 48bd f8ba 9abc de3f 25be
000000d0: 50f8 a9bd a0ef e0bc 3b7d 67bc 6f04 dbbd
000000e0: 73bf 9dbc 59cc debd 3d59 cdbd b91f 573c
000000f0: e39e bdbd 2544 43bd 8c44 1e3c f8df 8cbd
00000100: 08d9 ccbd 7f58 35bd a856 12be 0267 04bd
00000110: 3073 acbd 5e84 08be af97 d2bd 8944 70bd
00000120: 61bc 9fb8 e117 00be 84f1 29bb e0be 18bd
00000130: d21a 88bd 4540 efbc 5b5f bfbd 395c 02be
00000140: e32c 6cbc 0f29 efbc 7b90 a4bd 4bd3 1abe
00000150: 8992 24be 1865 c6bd dc5a 813c 5029 03be
00000160: e88b b3bd 965c 21be fa8b 3cbd 791b edbd
00000170: 275b dcbd ee94 38bd eef5 c7bd f586 8abd
00000180: f6c5 08be 1cca b5bd 5312 9cbd 8def b4bd
00000190: 4c6b aabc 67a8 a5bd d59c d43c dccd 083d
000001a0: 9c14 f8bc 3603 a63a 2d62 8ebc 2762 18bd
000001b0: 914a a7bc 3926 223d c921 89bd 2666 dbbd
000001c0: 5ff9 a8bd 7cb7 01bd 26c5 8dbd 953a a1bd
000001d0: 1ffa ecbd 3b46 883a 447d b4bb 05fc b0bc
000001e0: 08cc d0bd b27d 80bd 751f 06bd 1c2b 03bd
000001f0: 7481 2cbd dd87 15be ab6c 55bd 7668 c9bd
-0.045230992 -0.028134199 -0.08308574 -0.07462759 -0.061579052 -0.10482529 -0.113579094 -0.0344355
-0.06771192 -0.05640954 -0.073465034 -0.048834596 -0.09693393 -0.116646424 -0.043984354 -0.10934067
-0.044333097 -0.053213548 -0.035802078 -0.06028682 -0.083494194 -0.02533559 -0.08185212 -0.116241
-0.06157888 -0.19000517 -0.12662129 -0.123304434 -0.06498643 -0.03623454 -0.037157975 -0.09267307
-0.095034316 -0.033315666 -0.015244684 -0.010962606 -0.056380067 -0.01880246 -0.1167663 -0.062595256
-0.052733067 -0.010960516 0.009047634 -0.047780458 -0.108773805 -0.10820568 -0.027432943 -0.100799955
-0.008758503 -0.0489418 -0.018887982 -0.16137645 -0.08299315 -0.027458012 -0.014128978 -0.10694205
-0.01925633 -0.1087882 -0.100267865 0.013130122 -0.09258821 -0.04767241 0.009659898 -0.06878656
-0.10002333 -0.04427385 -0.14290869 -0.0323248 -0.08420408 -0.13331744 -0.102828376 -0.05865911
-7.616799e-05 -0.12509109 -0.0025931308 -0.037291408 -0.066457406 -0.02920545 -0.093443595 -0.12730493
-0.014414999 -0.029194383 -0.0803537 -0.15119664 -0.16071524 -0.09687251 0.015790395 -0.12808728
-0.087669194 -0.15757975 -0.04603193 -0.115775056 -0.107595734 -0.045063905 -0.09763704 -0.06764022
-0.13356766 -0.0887644 -0.076206826 -0.08834753 -0.020803116 -0.08088761 0.02595369 0.033399448
-0.030283265 0.0012665752 -0.017380798 -0.03720298 -0.020421298 0.039587233 -0.06695897 -0.10712843
-0.08250689 -0.031669125 -0.06922369 -0.07872502 -0.11571144 0.0010396907 -0.005508097 -0.021604547
-0.10195166 -0.062739745 -0.032744844 -0.032023534 -0.042115644 -0.14602609 -0.052105587 -0.098343775

action_model._continuous_distribution.log_sigma f4 [1, 10]
00000000: b466 8fbf d26b a8bf 8fbd 6fbf 56f0 47bf
00000010: ceb1 9dbf 6d0d 5abf 14d4 79bf 89e2 d2bf
00000020: daf5 87bf 5af1 81bf
-1.1203218 -1.3157904 -0.9364862 -0.781011 -1.2319887 -0.85176736 -0.9758923 -1.6475383
-1.0621903 -1.015178

action_model._continuous_distribution.mu.weight f4 [10, 128]
00000000: 636a 44bd 1d8b debd 8815 baba a210 3dbc
00000010: 43bf fb3d 7157 963c 2191 dabd c9fd 6e3d
00000020: 76b1 47bc dbce f43b 0c25 36bd fe42 8a3a
00000030: 2012 ba3d 8c72 c2bd 9a6b e1bd 0b6b 8f3a
00000040: 073f 8cbd 9f4f 263e 272f 98bc 7e39 8ebd
00000050: 9cfe 313b c6f3 d83d f929 d13c 6a96 b1bd
00000060: e0d4 d1bd 025a cbbc abc6 e0bd 3cc7 89bd
00000070: 63d4 9bbd 4b01 fdbd 3507 c5bc 5676 c0bd
00000080: 8992 8cbd 7fbb 293e 10d2 d93d 6058 52bd
00000090: 847f f63c b5d2 b43c 449e 72bd 0cbf 103e
000000a0: 9ad3 82bc b7c2 11bc 1c0b 2a3d 3f82 16bc
000000b0: 0739 9ebc f037 19be 5915 1e3e 1f6d 18be
000000c0: ce2c 5dbd 2b34 483d 5bf0 f53b 562c 9dbb
000000d0: 3393 33bd 41b6 debc e3af 893d 91e9 96bd
000000e0: cb1a 063e a259 173d cae4 203e 0801 1a3d
000000f0: 0b27 473b 7f0a c5bb 5976 693d b348 353e
00000100: 78e8 b9bd c8b0 d53c 3f94 0c3e ab45 10bd
00000110: 3b9b 8f3d f1e4 023d 6084 093c bb15 0f3e
00000120: f449 a63b b44b fdbd 9d3b 7cbd bbb9 a8bd
00000130: e3c3 663d b2f6 13bd 04c1 9c3c d7ca 623d
00000140: ce12 7dbc dde0 4dbd b1b1 6abd 9e37 f93d
00000150: 1131 a5bc 7538 14be bbd3 c03c b93a ce3c
00000160: 8109 55bd f827 70bd 3b37 0a3d 0b28 82bd
00000170: 6a6e 693d bdb9 cd3d b9ee 203d 81fd 4fbc
00000180: 38f3 2ebc fe0a 3abd 1021 a83d cf11 6ebc
00000190: 2dc0 17bd 0287 38be 8e91 213e aa87 efba
000001a0: 418f 623d 4f1f f4bc 8345 0f3d eb2e 80bb
000001b0: e42c afbd 6618 f43d a027 56be 118d 2c3d
000001c0: 1b3d b0bc f928 c53c 94d8 46bd 7efa 413d
000001d0: bdf6 3fbb f958 fcbd c1f6 f0bd 4d70 11bd
000001e0: 618a 7d3d 9d3c 41be 01be d2bd f58f 853d
000001f0: 4190 bfbd 5a8e 6dbd 4cee eabd bda9 ffbc
00000200: eaba 333d 44b1 783c 9e06 563e 88db 8abd
00000210: 241f 1dbe 72da 903d 759f 96bd 58dd 753d
00000220: 8911 023d 09e3 ae3e 88b5 9b3d 4503 87be
00000230: 247e 693d b806 ac3d a598 9fbd d162 45bc
00000240: 190b 2cbe 51b4 d7bc 3cdd 89bc 2b68 f73d
00000250: b219 34bd 4d25 27be ecb3 7d3b ac00 86bd
00000260: 8d0b 0abd 475c 34bc cc3d 5a3c 324b 10be
00000270: 1800 273c 4f1c e33c e090 f03b 2fe5 72bc
00000280: d45b 9a3b be6e 48bd cb31 143e 50b1 8bbc
00000290: 43cf f03d 7983 783e 261e 08bd 3a3d 8fbd
000002a0: 17f9 11be be36 613d 7077 0a3c 5475 113e
000002b0: 609c db3c e39b 803d 2a60 b8bd 5f50 1b3e
000002c0: 816f eb3d cf0e 843d ce90 3bbe 6540 d4bd
000002d0: 0b23 cabc f97a a33d 51f4 55bd 30c1 adbd
000002e0: 4ac5 503e ef18 3cbe f855 453d b16a 5ebd
000002f0: 2030 09bd 0331 a93e 1f7d 953d 870d a23d
00000300: 40c7 42bd 980b c63d 140f 923d fda8 193c
00000310: e586 45bc 8be5 303d 1271 dd3a cfcc 85bd
00000320: 922e 233d 02a4 213c 7c4f 633c 1371 8abe
00000330: 10ae 6d3d eb8f 11be 8d0f a5bd 60c6 123e
00000340: 120f 2cbe 4678 8a3c 1c97 0c3d 22b2 7fbd
00000350: 15e7 473d 7479 043d 091d 75bc f07a 59be
00000360: 1e62 ebbd c4d7 46bc 51bc 92bc 5da4 873c
00000370: b8c3 40bc 891b 41be 820e 1b3d 3476 b83c
00000380: 927a acbd 87f3 f9bd e98e 063d ef28 5cbd
00000390: fce5 04bb 25a8 8fbc 21c0 76be 3c8f 9abd
000003a0: c82f 293e 5742 20bd eb6a 68bc 784b 53be
000003b0: 9bce 86bd 0e9e 75bd 5069 ca3d d7ca 443d
000003c0: a23d dfbd 3c60 4d3d be55 793d 80d1 693d
000003d0: 06bf aebb 6655 5cbc 1d8e 8e3d 6fea 143e
000003e0: b368 9d3c 41f9 3d3d 7898 603d 2ddd 683e
000003f0: 9ad1 ecbc a1a0 673d 0a9f ee3c 8a8f 67bd
-0.04795302 -0.108663775 -0.0014197091 -0.01153961 0.1229234 0.018352242 -0.106722124 0.058347497
-0.012188306 0.007470948 -0.044468924 0.001054853 0.09085488 -0.09494504 -0.110068515 0.0010941935
-0.06847959 0.1624131 -0.018577171 -0.069445595 0.0027159816 0.10593371 0.02553271 -0.08671267
-0.10245681 -0.024823193 -0.10975393 -0.06727454 -0.07608869 -0.12353762 -0.024051288 -0.09397571
-0.06863887 0.1657543 0.10635769 -0.051353812 0.030090101 0.02207313 -0.059232965 0.14135379
-0.01597004 -0.008896521 0.0415145 -0.0091863265 -0.019314302 -0.14962745 0.15437831 -0.14885376
-0.053997807 0.048877876 0.0075054592 -0.004796545 -0.043841552 -0.027186515 0.06723001 -0.07368768
0.13096158 0.036950715 0.15712276 0.03759864 0.0030388262 -0.006013214 0.05699763 0.17703514
-0.09077543 0.026085272 0.13728426 -0.03522269 0.0701203 0.031956617 0.008393377 0.13973133
0.005074734 -0.12367955 -0.06158029 -0.0823855 0.056339156 -0.03612394 0.019135006 0.055369224
-0.015446378 -0.050263274 -0.057298366 0.12168811 -0.020164998 -0.14474662 0.023538461 0.025174486
-0.052011017 -0.058631867 0.033744078 -0.06355294 0.056990065 0.100451924 0.039290164 -0.012694717
-0.010678105 -0.04542064 0.08209431 -0.014530613 -0.037048507 -0.18020251 0.15778181 -0.0018274684
0.0553124 -0.029800085 0.0349784 -0.003911843 -0.08553484 0.11918716 -0.20913553 0.04212672
-0.021513512 0.024067389 -0.04854639 0.04735803 -0.0029291355 -0.12321658 -0.117658146 -0.03550749
0.061899547 -0.18870778 -0.102901466 0.06521598 -0.09353686 -0.057997085 -0.11471233 -0.031208867
0.043879427 0.015178982 0.20900962 -0.067801535 -0.1534391 0.07072915 -0.07354633 0.060025543
0.031755004 0.3415759 0.07602984 -0.26369682 0.057005063 0.08399719 -0.077927865 -0.012047485
-0.16801108 -0.026331099 -0.016829126 0.12080415 -0.043969817 -0.16322823 0.0038711978 -0.06543097
-0.033702422 -0.011008329 0.013320398 -0.14091185 0.010192893 0.02772346 0.007341489 -0.014825149
0.004710654 -0.048933737 0.1447212 -0.017052323 0.11758282 0.24268903 -0.033231877 -0.069941
-0.14255176 0.054983847 0.008451328 0.14204913 0.026807964 0.06279733 -0.09002717 0.15167378
0.11495877 0.06448137 -0.18316957 -0.10363845 -0.024674913 0.079824395 -0.05223495 -0.08484113
0.2038776 -0.18368886 0.04817769 -0.054300968 -0.03349316 0.33045205 0.072992556 0.079127364
-0.0475533 0.0967018 0.07131782 0.009378669 -0.012056087 0.04318766 0.001689466 -0.06533205
0.039839335 0.009865763 0.013873931 -0.27039394 0.058027327 -0.14215057 -0.08059607 0.14333487
-0.16802624 0.016903054 0.034323797 -0.06242574 0.04880436 0.03234239 -0.014960536 -0.21238303
-0.11493324 -0.0121364035 -0.017912062 0.016557867 -0.011765413 -0.1885816 0.037855633 0.022517301
-0.08421816 -0.12204652 0.032851133 -0.053749975 -0.0020278683 -0.017536232 -0.24096729 -0.07546851
0.16522133 -0.039125767 -0.0141856475 -0.20634258 -0.065823756 -0.059965186 0.09883368 0.048045006
-0.109004274 0.050140604 0.060872786 0.05708456 -0.0053328304 -0.013448095 0.069607 0.14542554
0.019214964 0.046380285 0.054832906 0.22740622 -0.02890854 0.056549672 0.02912857 -0.056533374

action_model._continuous_distribution.mu.bias f4 [10]
00000000: a9ed a53c 36af 1b3c 75ce 4cbc 8d97 4ebd
00000010: f99b 473e 4f14 923d 28f8 d93a af34 1bbd
00000020: 1347 823d d584 ccbd
0.020254927 0.009502223 -0.012500395 -0.0504375 0.19493093 0.0713278 0.0016629742 -0.03789204
0.063612126 -0.09986273

54 f4 [19]
00000000: b5df 5b41 d974 783f 3e16 0941 5f29 c63e
00000010: 9a51 043f ec92 c93e 2d73 063f 9089 ae40
00000020: dd5e 0f40 fe5a 9040 3bfd 1940 52ab b53f
00000030: a90d d73f 11e5 7141 be99 9c40 dda0 6041
00000040: c7c9 9141 105e d940 867a cf40
13.742116 0.97053295 8.56793 0.3870344 0.51687014 0.39369905 0.52519494 5.4542923
2.240165 4.5111074 2.406081 1.4192908 1.6801044 15.118424 4.8937674 14.039273
18.223524 6.7927322 6.4837065
